Trying to load previously generated training data
Trying to load previously generated test data
Hypeparameters:
num_epochs: 200
training set size: 5360
test set size: 1340

Model: "sequential_1"
_________________________________________________________________
Layer (type)                 Output Shape              Param #   
=================================================================
zero_padding2d_1 (ZeroPaddin (None, 226, 226, 3)       0         
_________________________________________________________________
conv1_1 (Conv2D)             (None, 224, 224, 64)      1792      
_________________________________________________________________
relu1_1 (Activation)         (None, 224, 224, 64)      0         
_________________________________________________________________
zero_padding2d_2 (ZeroPaddin (None, 226, 226, 64)      0         
_________________________________________________________________
conv1_2 (Conv2D)             (None, 224, 224, 64)      36928     
_________________________________________________________________
relu1_2 (Activation)         (None, 224, 224, 64)      0         
_________________________________________________________________
zero_padding2d_3 (ZeroPaddin (None, 225, 225, 64)      0         
_________________________________________________________________
pool1 (MaxPooling2D)         (None, 112, 112, 64)      0         
_________________________________________________________________
zero_padding2d_4 (ZeroPaddin (None, 114, 114, 64)      0         
_________________________________________________________________
conv2_1 (Conv2D)             (None, 112, 112, 128)     73856     
_________________________________________________________________
relu2_1 (Activation)         (None, 112, 112, 128)     0         
_________________________________________________________________
zero_padding2d_5 (ZeroPaddin (None, 114, 114, 128)     0         
_________________________________________________________________
conv2_2 (Conv2D)             (None, 112, 112, 128)     147584    
_________________________________________________________________
relu2_2 (Activation)         (None, 112, 112, 128)     0         
_________________________________________________________________
zero_padding2d_6 (ZeroPaddin (None, 113, 113, 128)     0         
_________________________________________________________________
pool2 (MaxPooling2D)         (None, 56, 56, 128)       0         
_________________________________________________________________
zero_padding2d_7 (ZeroPaddin (None, 58, 58, 128)       0         
_________________________________________________________________
conv3_1 (Conv2D)             (None, 56, 56, 256)       295168    
_________________________________________________________________
relu3_1 (Activation)         (None, 56, 56, 256)       0         
_________________________________________________________________
zero_padding2d_8 (ZeroPaddin (None, 58, 58, 256)       0         
_________________________________________________________________
conv3_2 (Conv2D)             (None, 56, 56, 256)       590080    
_________________________________________________________________
relu3_2 (Activation)         (None, 56, 56, 256)       0         
_________________________________________________________________
zero_padding2d_9 (ZeroPaddin (None, 58, 58, 256)       0         
_________________________________________________________________
conv3_3 (Conv2D)             (None, 56, 56, 256)       590080    
_________________________________________________________________
relu3_3 (Activation)         (None, 56, 56, 256)       0         
_________________________________________________________________
zero_padding2d_10 (ZeroPaddi (None, 57, 57, 256)       0         
_________________________________________________________________
pool3 (MaxPooling2D)         (None, 28, 28, 256)       0         
_________________________________________________________________
zero_padding2d_11 (ZeroPaddi (None, 30, 30, 256)       0         
_________________________________________________________________
conv4_1 (Conv2D)             (None, 28, 28, 512)       1180160   
_________________________________________________________________
relu4_1 (Activation)         (None, 28, 28, 512)       0         
_________________________________________________________________
zero_padding2d_12 (ZeroPaddi (None, 30, 30, 512)       0         
_________________________________________________________________
conv4_2 (Conv2D)             (None, 28, 28, 512)       2359808   
_________________________________________________________________
relu4_2 (Activation)         (None, 28, 28, 512)       0         
_________________________________________________________________
zero_padding2d_13 (ZeroPaddi (None, 30, 30, 512)       0         
_________________________________________________________________
conv4_3 (Conv2D)             (None, 28, 28, 512)       2359808   
_________________________________________________________________
relu4_3 (Activation)         (None, 28, 28, 512)       0         
_________________________________________________________________
zero_padding2d_14 (ZeroPaddi (None, 29, 29, 512)       0         
_________________________________________________________________
pool4 (MaxPooling2D)         (None, 14, 14, 512)       0         
_________________________________________________________________
zero_padding2d_15 (ZeroPaddi (None, 16, 16, 512)       0         
_________________________________________________________________
conv5_1 (Conv2D)             (None, 14, 14, 512)       2359808   
_________________________________________________________________
relu5_1 (Activation)         (None, 14, 14, 512)       0         
_________________________________________________________________
zero_padding2d_16 (ZeroPaddi (None, 16, 16, 512)       0         
_________________________________________________________________
conv5_2 (Conv2D)             (None, 14, 14, 512)       2359808   
_________________________________________________________________
relu5_2 (Activation)         (None, 14, 14, 512)       0         
_________________________________________________________________
zero_padding2d_17 (ZeroPaddi (None, 16, 16, 512)       0         
_________________________________________________________________
conv5_3 (Conv2D)             (None, 14, 14, 512)       2359808   
_________________________________________________________________
relu5_3 (Activation)         (None, 14, 14, 512)       0         
_________________________________________________________________
zero_padding2d_18 (ZeroPaddi (None, 15, 15, 512)       0         
_________________________________________________________________
pool5 (MaxPooling2D)         (None, 7, 7, 512)         0         
_________________________________________________________________
global_average_pooling2d (Gl (None, 512)               0         
_________________________________________________________________
dense (Dense)                (None, 2048)              1050624   
_________________________________________________________________
dropout (Dropout)            (None, 2048)              0         
_________________________________________________________________
dense_1 (Dense)              (None, 2048)              4196352   
_________________________________________________________________
dropout_1 (Dropout)          (None, 2048)              0         
_________________________________________________________________
dense_2 (Dense)              (None, 67)                137283    
=================================================================
Total params: 20,098,947
Trainable params: 5,384,259
Non-trainable params: 14,714,688
_________________________________________________________________
 1/42 [..............................] - ETA: 2:20 - loss: 2.8780 - accuracy: 0.6562 2/42 [
…
